cuda:1
torch version : 1.12.1
total data : 5911
Vincent van Gogh delete 428
Edgar Degas delete 288
Pablo Picasso delete 102
Pierre-Auguste Renoir delete 32
Albrecht Du rer delete 19
Paul Gauguin delete 19
Francisco Goya delete 3
ater data : 5020
----------------------------------------------------------------
        Layer (type)               Output Shape         Param #
================================================================
            Conv2d-1           [-1, 96, 56, 56]           4,704
           Permute-2           [-1, 56, 56, 96]               0
         LayerNorm-3           [-1, 56, 56, 96]             192
         LayerNorm-4           [-1, 56, 56, 96]             192
ShiftedWindowAttention-5           [-1, 56, 56, 96]               0
   StochasticDepth-6           [-1, 56, 56, 96]               0
         LayerNorm-7           [-1, 56, 56, 96]             192
            Linear-8          [-1, 56, 56, 384]          37,248
              GELU-9          [-1, 56, 56, 384]               0
          Dropout-10          [-1, 56, 56, 384]               0
           Linear-11           [-1, 56, 56, 96]          36,960
          Dropout-12           [-1, 56, 56, 96]               0
  StochasticDepth-13           [-1, 56, 56, 96]               0
SwinTransformerBlock-14           [-1, 56, 56, 96]               0
        LayerNorm-15           [-1, 56, 56, 96]             192
ShiftedWindowAttention-16           [-1, 56, 56, 96]               0
  StochasticDepth-17           [-1, 56, 56, 96]               0
        LayerNorm-18           [-1, 56, 56, 96]             192
           Linear-19          [-1, 56, 56, 384]          37,248
             GELU-20          [-1, 56, 56, 384]               0
          Dropout-21          [-1, 56, 56, 384]               0
           Linear-22           [-1, 56, 56, 96]          36,960
          Dropout-23           [-1, 56, 56, 96]               0
  StochasticDepth-24           [-1, 56, 56, 96]               0
SwinTransformerBlock-25           [-1, 56, 56, 96]               0
        LayerNorm-26          [-1, 28, 28, 384]             768
           Linear-27          [-1, 28, 28, 192]          73,728
     PatchMerging-28          [-1, 28, 28, 192]               0
        LayerNorm-29          [-1, 28, 28, 192]             384
ShiftedWindowAttention-30          [-1, 28, 28, 192]               0
  StochasticDepth-31          [-1, 28, 28, 192]               0
        LayerNorm-32          [-1, 28, 28, 192]             384
           Linear-33          [-1, 28, 28, 768]         148,224
             GELU-34          [-1, 28, 28, 768]               0
          Dropout-35          [-1, 28, 28, 768]               0
           Linear-36          [-1, 28, 28, 192]         147,648
          Dropout-37          [-1, 28, 28, 192]               0
  StochasticDepth-38          [-1, 28, 28, 192]               0
SwinTransformerBlock-39          [-1, 28, 28, 192]               0
        LayerNorm-40          [-1, 28, 28, 192]             384
ShiftedWindowAttention-41          [-1, 28, 28, 192]               0
  StochasticDepth-42          [-1, 28, 28, 192]               0
        LayerNorm-43          [-1, 28, 28, 192]             384
           Linear-44          [-1, 28, 28, 768]         148,224
             GELU-45          [-1, 28, 28, 768]               0
          Dropout-46          [-1, 28, 28, 768]               0
           Linear-47          [-1, 28, 28, 192]         147,648
          Dropout-48          [-1, 28, 28, 192]               0
  StochasticDepth-49          [-1, 28, 28, 192]               0
SwinTransformerBlock-50          [-1, 28, 28, 192]               0
        LayerNorm-51          [-1, 14, 14, 768]           1,536
           Linear-52          [-1, 14, 14, 384]         294,912
     PatchMerging-53          [-1, 14, 14, 384]               0
        LayerNorm-54          [-1, 14, 14, 384]             768
ShiftedWindowAttention-55          [-1, 14, 14, 384]               0
  StochasticDepth-56          [-1, 14, 14, 384]               0
        LayerNorm-57          [-1, 14, 14, 384]             768
           Linear-58         [-1, 14, 14, 1536]         591,360
             GELU-59         [-1, 14, 14, 1536]               0
          Dropout-60         [-1, 14, 14, 1536]               0
           Linear-61          [-1, 14, 14, 384]         590,208
          Dropout-62          [-1, 14, 14, 384]               0
  StochasticDepth-63          [-1, 14, 14, 384]               0
SwinTransformerBlock-64          [-1, 14, 14, 384]               0
        LayerNorm-65          [-1, 14, 14, 384]             768
ShiftedWindowAttention-66          [-1, 14, 14, 384]               0
  StochasticDepth-67          [-1, 14, 14, 384]               0
        LayerNorm-68          [-1, 14, 14, 384]             768
           Linear-69         [-1, 14, 14, 1536]         591,360
             GELU-70         [-1, 14, 14, 1536]               0
          Dropout-71         [-1, 14, 14, 1536]               0
           Linear-72          [-1, 14, 14, 384]         590,208
          Dropout-73          [-1, 14, 14, 384]               0
  StochasticDepth-74          [-1, 14, 14, 384]               0
SwinTransformerBlock-75          [-1, 14, 14, 384]               0
        LayerNorm-76          [-1, 14, 14, 384]             768
ShiftedWindowAttention-77          [-1, 14, 14, 384]               0
  StochasticDepth-78          [-1, 14, 14, 384]               0
        LayerNorm-79          [-1, 14, 14, 384]             768
           Linear-80         [-1, 14, 14, 1536]         591,360
             GELU-81         [-1, 14, 14, 1536]               0
          Dropout-82         [-1, 14, 14, 1536]               0
           Linear-83          [-1, 14, 14, 384]         590,208
          Dropout-84          [-1, 14, 14, 384]               0
  StochasticDepth-85          [-1, 14, 14, 384]               0
SwinTransformerBlock-86          [-1, 14, 14, 384]               0
        LayerNorm-87          [-1, 14, 14, 384]             768
ShiftedWindowAttention-88          [-1, 14, 14, 384]               0
  StochasticDepth-89          [-1, 14, 14, 384]               0
        LayerNorm-90          [-1, 14, 14, 384]             768
           Linear-91         [-1, 14, 14, 1536]         591,360
             GELU-92         [-1, 14, 14, 1536]               0
          Dropout-93         [-1, 14, 14, 1536]               0
           Linear-94          [-1, 14, 14, 384]         590,208
          Dropout-95          [-1, 14, 14, 384]               0
  StochasticDepth-96          [-1, 14, 14, 384]               0
SwinTransformerBlock-97          [-1, 14, 14, 384]               0
        LayerNorm-98          [-1, 14, 14, 384]             768
ShiftedWindowAttention-99          [-1, 14, 14, 384]               0
 StochasticDepth-100          [-1, 14, 14, 384]               0
       LayerNorm-101          [-1, 14, 14, 384]             768
          Linear-102         [-1, 14, 14, 1536]         591,360
            GELU-103         [-1, 14, 14, 1536]               0
         Dropout-104         [-1, 14, 14, 1536]               0
          Linear-105          [-1, 14, 14, 384]         590,208
         Dropout-106          [-1, 14, 14, 384]               0
 StochasticDepth-107          [-1, 14, 14, 384]               0
SwinTransformerBlock-108          [-1, 14, 14, 384]               0
       LayerNorm-109          [-1, 14, 14, 384]             768
ShiftedWindowAttention-110          [-1, 14, 14, 384]               0
 StochasticDepth-111          [-1, 14, 14, 384]               0
       LayerNorm-112          [-1, 14, 14, 384]             768
          Linear-113         [-1, 14, 14, 1536]         591,360
            GELU-114         [-1, 14, 14, 1536]               0
         Dropout-115         [-1, 14, 14, 1536]               0
          Linear-116          [-1, 14, 14, 384]         590,208
         Dropout-117          [-1, 14, 14, 384]               0
 StochasticDepth-118          [-1, 14, 14, 384]               0
SwinTransformerBlock-119          [-1, 14, 14, 384]               0
       LayerNorm-120          [-1, 14, 14, 384]             768
ShiftedWindowAttention-121          [-1, 14, 14, 384]               0
 StochasticDepth-122          [-1, 14, 14, 384]               0
       LayerNorm-123          [-1, 14, 14, 384]             768
          Linear-124         [-1, 14, 14, 1536]         591,360
            GELU-125         [-1, 14, 14, 1536]               0
         Dropout-126         [-1, 14, 14, 1536]               0
          Linear-127          [-1, 14, 14, 384]         590,208
         Dropout-128          [-1, 14, 14, 384]               0
 StochasticDepth-129          [-1, 14, 14, 384]               0
SwinTransformerBlock-130          [-1, 14, 14, 384]               0
       LayerNorm-131          [-1, 14, 14, 384]             768
ShiftedWindowAttention-132          [-1, 14, 14, 384]               0
 StochasticDepth-133          [-1, 14, 14, 384]               0
       LayerNorm-134          [-1, 14, 14, 384]             768
          Linear-135         [-1, 14, 14, 1536]         591,360
            GELU-136         [-1, 14, 14, 1536]               0
         Dropout-137         [-1, 14, 14, 1536]               0
          Linear-138          [-1, 14, 14, 384]         590,208
         Dropout-139          [-1, 14, 14, 384]               0
 StochasticDepth-140          [-1, 14, 14, 384]               0
SwinTransformerBlock-141          [-1, 14, 14, 384]               0
       LayerNorm-142          [-1, 14, 14, 384]             768
ShiftedWindowAttention-143          [-1, 14, 14, 384]               0
 StochasticDepth-144          [-1, 14, 14, 384]               0
       LayerNorm-145          [-1, 14, 14, 384]             768
          Linear-146         [-1, 14, 14, 1536]         591,360
            GELU-147         [-1, 14, 14, 1536]               0
         Dropout-148         [-1, 14, 14, 1536]               0
          Linear-149          [-1, 14, 14, 384]         590,208
         Dropout-150          [-1, 14, 14, 384]               0
 StochasticDepth-151          [-1, 14, 14, 384]               0
SwinTransformerBlock-152          [-1, 14, 14, 384]               0
       LayerNorm-153          [-1, 14, 14, 384]             768
ShiftedWindowAttention-154          [-1, 14, 14, 384]               0
 StochasticDepth-155          [-1, 14, 14, 384]               0
       LayerNorm-156          [-1, 14, 14, 384]             768
          Linear-157         [-1, 14, 14, 1536]         591,360
            GELU-158         [-1, 14, 14, 1536]               0
         Dropout-159         [-1, 14, 14, 1536]               0
          Linear-160          [-1, 14, 14, 384]         590,208
         Dropout-161          [-1, 14, 14, 384]               0
 StochasticDepth-162          [-1, 14, 14, 384]               0
SwinTransformerBlock-163          [-1, 14, 14, 384]               0
       LayerNorm-164          [-1, 14, 14, 384]             768
ShiftedWindowAttention-165          [-1, 14, 14, 384]               0
 StochasticDepth-166          [-1, 14, 14, 384]               0
       LayerNorm-167          [-1, 14, 14, 384]             768
          Linear-168         [-1, 14, 14, 1536]         591,360
            GELU-169         [-1, 14, 14, 1536]               0
         Dropout-170         [-1, 14, 14, 1536]               0
          Linear-171          [-1, 14, 14, 384]         590,208
         Dropout-172          [-1, 14, 14, 384]               0
 StochasticDepth-173          [-1, 14, 14, 384]               0
SwinTransformerBlock-174          [-1, 14, 14, 384]               0
       LayerNorm-175          [-1, 14, 14, 384]             768
ShiftedWindowAttention-176          [-1, 14, 14, 384]               0
 StochasticDepth-177          [-1, 14, 14, 384]               0
       LayerNorm-178          [-1, 14, 14, 384]             768
          Linear-179         [-1, 14, 14, 1536]         591,360
            GELU-180         [-1, 14, 14, 1536]               0
         Dropout-181         [-1, 14, 14, 1536]               0
          Linear-182          [-1, 14, 14, 384]         590,208
         Dropout-183          [-1, 14, 14, 384]               0
 StochasticDepth-184          [-1, 14, 14, 384]               0
SwinTransformerBlock-185          [-1, 14, 14, 384]               0
       LayerNorm-186          [-1, 14, 14, 384]             768
ShiftedWindowAttention-187          [-1, 14, 14, 384]               0
 StochasticDepth-188          [-1, 14, 14, 384]               0
       LayerNorm-189          [-1, 14, 14, 384]             768
          Linear-190         [-1, 14, 14, 1536]         591,360
            GELU-191         [-1, 14, 14, 1536]               0
         Dropout-192         [-1, 14, 14, 1536]               0
          Linear-193          [-1, 14, 14, 384]         590,208
         Dropout-194          [-1, 14, 14, 384]               0
 StochasticDepth-195          [-1, 14, 14, 384]               0
SwinTransformerBlock-196          [-1, 14, 14, 384]               0
       LayerNorm-197          [-1, 14, 14, 384]             768
ShiftedWindowAttention-198          [-1, 14, 14, 384]               0
 StochasticDepth-199          [-1, 14, 14, 384]               0
       LayerNorm-200          [-1, 14, 14, 384]             768
          Linear-201         [-1, 14, 14, 1536]         591,360
            GELU-202         [-1, 14, 14, 1536]               0
         Dropout-203         [-1, 14, 14, 1536]               0
          Linear-204          [-1, 14, 14, 384]         590,208
         Dropout-205          [-1, 14, 14, 384]               0
 StochasticDepth-206          [-1, 14, 14, 384]               0
SwinTransformerBlock-207          [-1, 14, 14, 384]               0
       LayerNorm-208          [-1, 14, 14, 384]             768
ShiftedWindowAttention-209          [-1, 14, 14, 384]               0
 StochasticDepth-210          [-1, 14, 14, 384]               0
       LayerNorm-211          [-1, 14, 14, 384]             768
          Linear-212         [-1, 14, 14, 1536]         591,360
            GELU-213         [-1, 14, 14, 1536]               0
         Dropout-214         [-1, 14, 14, 1536]               0
          Linear-215          [-1, 14, 14, 384]         590,208
         Dropout-216          [-1, 14, 14, 384]               0
 StochasticDepth-217          [-1, 14, 14, 384]               0
SwinTransformerBlock-218          [-1, 14, 14, 384]               0
       LayerNorm-219          [-1, 14, 14, 384]             768
ShiftedWindowAttention-220          [-1, 14, 14, 384]               0
 StochasticDepth-221          [-1, 14, 14, 384]               0
       LayerNorm-222          [-1, 14, 14, 384]             768
          Linear-223         [-1, 14, 14, 1536]         591,360
            GELU-224         [-1, 14, 14, 1536]               0
         Dropout-225         [-1, 14, 14, 1536]               0
          Linear-226          [-1, 14, 14, 384]         590,208
         Dropout-227          [-1, 14, 14, 384]               0
 StochasticDepth-228          [-1, 14, 14, 384]               0
SwinTransformerBlock-229          [-1, 14, 14, 384]               0
       LayerNorm-230          [-1, 14, 14, 384]             768
ShiftedWindowAttention-231          [-1, 14, 14, 384]               0
 StochasticDepth-232          [-1, 14, 14, 384]               0
       LayerNorm-233          [-1, 14, 14, 384]             768
          Linear-234         [-1, 14, 14, 1536]         591,360
            GELU-235         [-1, 14, 14, 1536]               0
         Dropout-236         [-1, 14, 14, 1536]               0
          Linear-237          [-1, 14, 14, 384]         590,208
         Dropout-238          [-1, 14, 14, 384]               0
 StochasticDepth-239          [-1, 14, 14, 384]               0
SwinTransformerBlock-240          [-1, 14, 14, 384]               0
       LayerNorm-241          [-1, 14, 14, 384]             768
ShiftedWindowAttention-242          [-1, 14, 14, 384]               0
 StochasticDepth-243          [-1, 14, 14, 384]               0
       LayerNorm-244          [-1, 14, 14, 384]             768
          Linear-245         [-1, 14, 14, 1536]         591,360
            GELU-246         [-1, 14, 14, 1536]               0
         Dropout-247         [-1, 14, 14, 1536]               0
          Linear-248          [-1, 14, 14, 384]         590,208
         Dropout-249          [-1, 14, 14, 384]               0
 StochasticDepth-250          [-1, 14, 14, 384]               0
SwinTransformerBlock-251          [-1, 14, 14, 384]               0
       LayerNorm-252           [-1, 7, 7, 1536]           3,072
          Linear-253            [-1, 7, 7, 768]       1,179,648
    PatchMerging-254            [-1, 7, 7, 768]               0
       LayerNorm-255            [-1, 7, 7, 768]           1,536
ShiftedWindowAttention-256            [-1, 7, 7, 768]               0
 StochasticDepth-257            [-1, 7, 7, 768]               0
       LayerNorm-258            [-1, 7, 7, 768]           1,536
          Linear-259           [-1, 7, 7, 3072]       2,362,368
            GELU-260           [-1, 7, 7, 3072]               0
         Dropout-261           [-1, 7, 7, 3072]               0
          Linear-262            [-1, 7, 7, 768]       2,360,064
         Dropout-263            [-1, 7, 7, 768]               0
 StochasticDepth-264            [-1, 7, 7, 768]               0
SwinTransformerBlock-265            [-1, 7, 7, 768]               0
       LayerNorm-266            [-1, 7, 7, 768]           1,536
ShiftedWindowAttention-267            [-1, 7, 7, 768]               0
 StochasticDepth-268            [-1, 7, 7, 768]               0
       LayerNorm-269            [-1, 7, 7, 768]           1,536
          Linear-270           [-1, 7, 7, 3072]       2,362,368
            GELU-271           [-1, 7, 7, 3072]               0
         Dropout-272           [-1, 7, 7, 3072]               0
          Linear-273            [-1, 7, 7, 768]       2,360,064
         Dropout-274            [-1, 7, 7, 768]               0
 StochasticDepth-275            [-1, 7, 7, 768]               0
SwinTransformerBlock-276            [-1, 7, 7, 768]               0
       LayerNorm-277            [-1, 7, 7, 768]           1,536
AdaptiveAvgPool2d-278            [-1, 768, 1, 1]               0
          Linear-279                 [-1, 1000]         769,000
 SwinTransformer-280                 [-1, 1000]               0
         Dropout-281                 [-1, 1000]               0
          Linear-282                   [-1, 50]          50,050
================================================================
Total params: 33,868,490
Trainable params: 33,868,490
Non-trainable params: 0
----------------------------------------------------------------
Input size (MB): 0.57
Forward/backward pass size (MB): 371.26
Params size (MB): 129.20
Estimated Total Size (MB): 501.03
----------------------------------------------------------------
Epoch [1], Train Loss : 0.01097, Val Loss : 0.00600, Val F1 Score : 0.02538
…
